…
================>.] - ETA: 5s - loss: 0.0928 - mean_squared_error: 0.0928 120/120 [==============================] - 704s - loss: 0.0924 - mean_squared_error: 0.0924   
____________________________________________________________________________________________________
Layer (type)                     Output Shape          Param #     Connected to                     
====================================================================================================
celltype_input (InputLayer)      (None, 1)             0                                            
____________________________________________________________________________________________________
assay_input (InputLayer)         (None, 1)             0                                            
____________________________________________________________________________________________________
genome_25bp_input (InputLayer)   (None, 1)             0                                            
____________________________________________________________________________________________________
genome_250bp_input (InputLayer)  (None, 1)             0                                            
____________________________________________________________________________________________________
genome_5kbp_input (InputLayer)   (None, 1)             0                                            
____________________________________________________________________________________________________
celltype_embedding (Embedding)   (None, 1, 32)         4096        celltype_input[0][0]             
____________________________________________________________________________________________________
assay_embedding (Embedding)      (None, 1, 256)        6144        assay_input[0][0]                
____________________________________________________________________________________________________
genome_25bp_embedding (Embedding (None, 1, 25)         107349525   genome_25bp_input[0][0]          
____________________________________________________________________________________________________
genome_250bp_embedding (Embeddin (None, 1, 40)         17175960    genome_250bp_input[0][0]         
____________________________________________________________________________________________________
genome_5kbp_embedding (Embedding (None, 1, 45)         966150      genome_5kbp_input[0][0]          
____________________________________________________________________________________________________
flatten_11 (Flatten)             (None, 32)            0           celltype_embedding[0][0]         
____________________________________________________________________________________________________
flatten_12 (Flatten)             (None, 256)           0           assay_embedding[0][0]            
____________________________________________________________________________________________________
flatten_13 (Flatten)             (None, 25)            0           genome_25bp_embedding[0][0]      
____________________________________________________________________________________________________
flatten_14 (Flatten)             (None, 40)            0           genome_250bp_embedding[0][0]     
____________________________________________________________________________________________________
flatten_15 (Flatten)             (None, 45)            0           genome_5kbp_embedding[0][0]      
____________________________________________________________________________________________________
concatenate_3 (Concatenate)      (None, 398)           0           flatten_11[0][0]                 
                                                                   flatten_12[0][0]                 
                                                                   flatten_13[0][0]                 
                                                                   flatten_14[0][0]                 
                                                                   flatten_15[0][0]                 
____________________________________________________________________________________________________
dense_0 (Dense)                  (None, 2048)          817152      concatenate_3[0][0]              
____________________________________________________________________________________________________
dense_1 (Dense)                  (None, 2048)          4196352     dense_0[0][0]                    
____________________________________________________________________________________________________
y_pred (Dense)                   (None, 1)             2049        dense_1[0][0]                    
====================================================================================================
Total params: 130,517,428
Trainable params: 130,517,428
Non-trainable params: 0
____________________________________________________________________________________________________
Prediction for GM06690 H3K4me3: [0.22424836 0.22978383 0.22714446 ... 0.06362307 0.04724927 0.03954887]
…
